当前日期和时间： 2023-03-14_22_22_30
training settings:	 lr: 0.0001 momentum: 0.9 l2_decay: 0.0001 optimizer: Adam seed: 6
model architecture:
 MFSAN(
  (sharedNet): CFE(
    (conv1): Conv1d(14, 32, kernel_size=(3,), stride=(1,), padding=(1,), bias=False)
    (bn1): BatchNorm1d(32, eps=1e-05, momentum=0.1, affine=True, track_running_stats=True)
    (conv2): Conv1d(32, 64, kernel_size=(2,), stride=(1,), padding=(1,), bias=False)
    (bn2): BatchNorm1d(64, eps=1e-05, momentum=0.1, affine=True, track_running_stats=True)
    (conv3): Conv1d(64, 128, kernel_size=(2,), stride=(1,), bias=False)
    (bn3): BatchNorm1d(128, eps=1e-05, momentum=0.1, affine=True, track_running_stats=True)
    (relu): ReLU(inplace=True)
    (flatten): Flatten(start_dim=1, end_dim=-1)
  )
  (sonnet1): DFE(
    (rnn): LSTM(128, 100, num_layers=2, batch_first=True, dropout=0.2, bidirectional=True)
  )
  (sonnet2): DFE(
    (rnn): LSTM(128, 100, num_layers=2, batch_first=True, dropout=0.2, bidirectional=True)
  )
  (sonnet3): DFE(
    (rnn): LSTM(128, 100, num_layers=2, batch_first=True, dropout=0.2, bidirectional=True)
  )
  (rul_fc_son1): Linear(in_features=199, out_features=1, bias=True)
  (rul_fc_son2): Linear(in_features=199, out_features=1, bias=True)
  (rul_fc_son3): Linear(in_features=199, out_features=1, bias=True)
  (avgpool): AvgPool1d(kernel_size=(2,), stride=(1,), padding=(0,))
  (dann): Discriminator(
    (discriminator): Sequential(
      (0): Linear(in_features=199, out_features=50, bias=True)
      (1): ReLU()
      (2): Dropout(p=0.2, inplace=False)
      (3): Linear(in_features=50, out_features=10, bias=True)
      (4): ReLU()
      (5): Dropout(p=0.2, inplace=False)
      (6): Linear(in_features=10, out_features=2, bias=True)
    )
  )
)
FD002 FD003 FD004 to FD001
Train source1 iter: 10 [(5%)]	Loss: 0.446235	RUL_Loss: 0.266244	mmd_Loss: 0.693640	l1_Loss: 0.080085
Train source2 iter: 10 [(5%)]	Loss: 0.412233	RUL_Loss: 0.231865	mmd_Loss: 0.698200	l1_Loss: 0.077146
Train source3 iter: 10 [(5%)]	Loss: 0.740540	RUL_Loss: 0.559404	mmd_Loss: 0.700411	l1_Loss: 0.078236


Train source1 iter: 20 [(9%)]	Loss: 0.545204	RUL_Loss: 0.206261	mmd_Loss: 0.693566	l1_Loss: 0.074365
…
